traced_model.pt (torch, 96980 bytes, 10 tensors)

weight f4 [100, 22]
0.3012976 0.6504746 -0.8578762 -0.7405711 -1.2731391 0.1625295 0.21126515 1.0800279
0.0013384286 0.22377667 -0.9485095 -0.2701314 -0.32352576 0.13318795 -0.72856325 0.057013094
3.3610466 0.18999167 1.4304041 -3.5453203 -2.4236085 2.5915332 -0.056768026 0.1465162
-0.047344103 0.009608131 0.18007669 -0.19777998 -0.13421795 -0.053975016 -0.08310562 0.18420559
-0.15107812 -0.110830374 -0.16172141 -0.21257545 -0.13720515 0.17030782 0.09513408 0.10333255
0.011212558 -0.109304495 0.036070302 -0.19906439 -1.3428818 -0.18871525 0.17814831 0.19450475
-1.497604 0.3480647 0.42917353 1.0192554 0.5195059 -0.57340926 -0.25537485 -1.584279
-0.5322852 -0.44537804 -1.1170661 -0.024353895 -6.671593 -17.092169 -2.4355607 -4.196763
-0.34407488 1.1305578 0.6687007 -0.07444317 0.041679263 0.31435236 -0.9029875 -0.6791339
-0.24835517 0.5550145 1.063747 1.1087188 -1.360278 -1.6797343 -0.4421487 -0.085100606
-0.5354442 0.059310373 -7.7146177 -3.8032758 -0.5878364 -1.6335601 0.5667122 -7.1010866
0.07597986 -0.13229053 0.07213065 0.10178086 0.14659475 0.073688544 -0.21101226 -0.13830265
0.10645431 0.044623196 -0.17232117 -0.12872846 0.19458692 0.13764876 -0.09893819 -0.059681933
-0.20400345 -0.0038321018 -0.1605527 -0.1644538 -0.015224742 0.027573843 -1.8263559 0.07903148
-0.2571955 0.14785925 0.5690201 -1.7491151 0.28935185 -0.6108764 0.3938593 0.35595143
-0.47002277 -1.6182892 -0.33618215 0.010431559 -0.05900145 -0.17947324 4.2563624 4.534235
1.8383938 0.96716386 -0.47488287 1.4988791 -1.6998155 -0.54797727 0.32143113 -0.59254026
-0.19639847 0.16241488 0.5022658 0.2050485 1.1503701 0.45894098 -0.066020146 0.65490437
0.48296013 0.03634274 1.6183664 0.18457946 -0.24413255 2.5371537 1.849337 0.32778338
0.86155516 1.4057052 0.5158148 -1.403876 0.5706632 -0.03329235 0.14624056 0.048916098
0.5614205 -0.33190528 -0.909301 -0.7513967 -0.3246885 1.541981 0.66148275 0.09702547
-1.1192516 0.0065007587 4.591575 3.3852856 0.31346723 -4.039608 0.84331423 0.53727585
-1.4258446 -0.2215865 0.48652324 -0.4909365 0.49673632 -0.006839221 0.79080105 0.27270678
0.2235262 -0.6723038 0.22432661 1.0633785 0.33793628 0.34161016 0.96005285 0.06602141
-2.3208716 -0.41145936 -2.5942924 -0.42552817 -6.4822536 -0.6195798 -0.12704912 -0.004651442
0.008968949 0.1374341 -0.1611627 -0.1463649 -0.123797454 0.14922631 -0.07663819 0.1798324
0.077095 0.026996762 -0.001587078 -0.04214585 0.026749521 -0.048683256 -0.0014980435 0.027202934
-0.16676669 -0.11174519 0.17215803 -0.17302233 -0.5756337 0.9208996 -0.015894422 0.5056916
-0.6863509 0.4295784 -0.64155394 0.6010336 -1.4822278 -0.1688212 0.20139928 0.4548834
-0.1738232 0.15209469 0.06209064 -0.12486465 -0.09098353 0.1395254 -0.84339887 0.79124916
1.4344532 1.1145686 1.3183255 0.23920281 -0.13295507 -2.2289557 -0.94388247 -2.3640792
-1.7276691 -1.9477497 -0.01629129 0.33434042 1.132487 1.0791082 0.6213635 -0.20507707
00000000: ae43 9a3e 8185 263f c69d 5bbf 1196 3dbf
00000010: 39f6 a2bf 226e 263e e455 583e 5b3e 8a3f
00000020: 366e af3a b625 653e 85d1 72bf aa4e 8abe
00000030: 2ba5 a5be 6c62 083e 1f83 3abf 9086 693d
00000040: 631b 5740 2d8d 423e 7b17 b73f 87e6 62c0
00000050: 671c 1bc0 aedb 2540 9785 68bd 5808 163e
00000060: e4eb 41bd 6c6b 1d3c 0666 383e d686 4abe
00000070: 6e70 09be e814 5dbd 4833 aabd 64a0 3c3e
00000080: 39b4 1abe 09fb e2bd 4c9a 25be 61ad 59be
00000090: 827f 0cbe 2c65 2e3e a8d5 c23d 04a0 d33d
000000a0: e0b4 373c 09db dfbd 74be 133d 89d7 4bbe
000000b0: 8de3 abbf 923e 41be 836c 363e 412c 473e
000000c0: 7db1 bfbf 8935 b23e a2bc db3e f676 823f
000000d0: 57fe 043f f3ca 12bf 7ec0 82be a7c9 cabf
000000e0: d843 08bf 9708 e4be 06fc 8ebf d281 c7bc
000000f0: b17d d5c0 c3bc 88c1 3ae0 1bc0 e24b 86c0
00000100: 952a b0be 1eb6 903f f82f 2b3f a975 98bd
00000110: e0b7 2a3d cbf2 a03e 302a 67bf b8db 2dbf
00000120: d150 7ebe 6e15 0e3f dd28 883f 7fea 8d3f
00000130: 971d aebf 8901 d7bf 5061 e2be 3a49 aebd
00000140: df12 09bf 6fef 723d 26de f6c0 df68 73c0
00000150: 727c 16bf 7f18 d1bf 0d14 113f 1a3c e3c0
00000160: 549b 9b3d 2b77 07be 3cb9 933d 7c72 d03d
00000170: ef1c 163e 05ea 963d 9913 58be 369f 0dbe
00000180: b804 da3d d0c6 363d f674 30be 65d1 03be
00000190: cb41 473e ccf3 0c3e 1ba0 cabd 0b75 74bd
000001a0: 48e6 50be 0024 7bbb ed67 24be 9466 28be
000001b0: 3271 79bc 8ae2 e13c 08c6 e9bf 42db a13d
000001c0: 21af 83be 6a68 173e 4dab 113f 01e3 dfbf
000001d0: ed25 943e 6562 1cbf eda7 c93e 443f b63e
000001e0: d3a6 f0be 1a24 cfbf 1120 acbe 21e9 2a3c
000001f0: 81ab 71bd d5c7 37be 1f34 8840 7418 9140
00000200: 7d50 eb3f 0d98 773f d923 f3be 45db bf3f
00000210: 8e93 d9bf 3d48 0cbf 9f92 a43e b8b0 17bf
00000220: ae1c 49be 1650 263e 7e94 003f 3cf8 513e
00000230: 543f 933f 50fa ea3e 9235 87bd d0a7 273f
00000240: 8d46 f73e 20dc 143d a126 cf3f 6602 3d3e
00000250: e2fd 79be ba60 2240 13b7 ec3f 39d3 a73e
00000260: e18e 5c3f 26ee b33f 700c 043f 35b2 b3bf
00000270: fc16 123f 8f5d 08bd 16c0 153e 3f5c 483d
00000280: 41b9 0f3f 7def a9be f3c7 68bf 895b 40bf
00000290: 923d a6be a25f c53f ef56 293f 4ab5 c63d
000002a0: a343 8fbf 5104 d53b 2fee 9240 85a8 5840
000002b0: c77e a03e 7844 81c0 71e3 573f e98a 093f
000002c0: 1382 b6bf 92e7 62be 9319 f93e 075c fbbe
000002d0: 3954 fe3e 8b1b e0bb f071 4a3f 39a0 8b3e
000002e0: 0de4 643e 1a1c 2cbf e0b5 653e c91c 883f
000002f0: fc05 ad3e 87e7 ae3e 06c6 753f 3c36 873d
00000300: 2989 14c0 cdaa d2be e308 26c0 d4de d9be
00000310: 9f6e cfc0 c89c 1ebf 2a19 02be 206b 98bb
00000320: 80f2 123c 86bb 0c3e d607 25be aee0 15be
00000330: 8589 fdbd c8ce 183e 7cf4 9cbd fc25 383e
00000340: fce3 9d3d 5028 dd3c 8005 d0ba 20a1 2cbd
00000350: d021 db3c 1868 47bd 005a c4ba b0d8 de3c
00000360: e3c4 2abe aada e4bd 324a 303e c42c 31be
00000370: bb5c 13bf 14c0 6b3f 0535 82bc 0175 013f
00000380: b1b4 2fbf b3f1 db3e e13c 24bf 57dd 193f
00000390: a4b9 bdbf 77df 2cbe 9d3b 4e3e 7ae6 e83e
000003a0: b5fe 31be b6be 1b3e c152 7e3d 0ab9 ffbd
000003b0: 9355 babd bfdf 0e3e fde8 57bf 4e8f 4a3f
000003c0: 2a9c b73f 2faa 8e3f e4be a83f 95f1 743e
000003d0: 6025 08be 36a7 0ec0 48a2 71bf 134d 17c0
000003e0: 4324 ddbf dd4f f9bf 5075 85bc ab2e ab3e
000003f0: 56f5 903f 3820 8a3f ae11 1f3f b9ff 51be

bias f4 [100]
0.3845327 -0.15429601 0.39263886 0.07188449 -0.18860501 0.5195285 -0.84329253 -0.064744435
-0.49209696 -0.1834113 -0.18057175 0.06143971 0.4350712 -0.16759917 0.14393476 0.1402728
0.23248702 -0.43758932 -0.68048364 -0.5547112 0.3810271 -0.4089723 -0.15621957 -0.06151284
0.0069681616 -0.18590268 0.15461965 -0.45118225 0.47048345 -0.47700247 -0.28495896 -0.27729347
0.40021145 -0.3663019 -0.5344861 0.17008854 0.6756389 -0.22490789 0.43580815 0.02807588
-0.13444147 -0.3931384 -0.20884842 -0.14678805 -0.4303615 0.42727837 -0.29145485 -0.036088385
-0.7212061 -0.49794793 0.18681951 0.51775336 0.5128308 0.6798946 -0.3884368 -0.08293367
0.50340575 -0.4042998 -0.5412286 0.18420224 0.012171924 -0.67093396 -0.07729304 0.058642022
0.32787055 -0.18516698 0.21379644 0.27595705 -0.7217542 -0.11633408 -0.242505 0.2894517
-0.23118262 -0.17056029 -0.034257874 0.29211307 -0.05977045 -0.5313262 0.3975767 0.04485977
0.11247954 -0.22060786 -0.2940123 0.028774139 -0.31156242 -0.16360141 -0.21020947 -0.15472764
-0.12824982 -0.0150615545 0.34436297 -0.14747398 -0.10986807 0.3310419 0.1541886 0.15762536
0.105031885 0.31198302 0.40408456 -0.20201024
00000000: 78e1 c43e c6ff 1dbe f607 c93e 2d38 933d
00000010: ac21 41be d2ff 043f 05e2 57bf bb98 84bd
00000020: 22f4 fbbe 2cd0 3bbe cde7 38be 35a8 7b3d
00000030: a7c1 de3e 1e9f 2bbe a263 133e aca3 0f3e
00000040: 1411 6e3e b50b e0be 2d34 2ebf 8e01 0ebf
00000050: fc15 c33e d164 d1be 06f8 1fbe e3f4 7bbd
00000060: 2d55 e43b 465d 3ebe 9d54 1e3e 5c01 e7be
00000070: 35e3 f03e ab39 f4be 24e6 91be 69f9 8dbe
00000080: 84e8 cc3e ec8b bbbe 15d4 08bf b12b 2e3e
00000090: acf6 2c3f 414e 66be 3f22 df3e 63ff e53c
000000a0: 06ab 09be 7049 c9be 5cdc 55be 9b4f 16be
000000b0: 5858 dcbe 3bc4 da3e 9239 95be 6ad1 13bd
000000c0: f7a0 38bf 08f3 febe 9d4d 3f3e 7c8b 043f
000000d0: e148 033f 930d 2e3f 30e1 c6be 21d9 a9bd
000000e0: 33df 003f 6200 cfbe f58d 0abf 839f 3c3e
000000f0: c06c 473c 54c2 2bbf d04b 9ebd 9e32 703d
00000100: a6de a73e 6a9c 3dbe 74ed 5a3e 3e4a 8d3e
00000110: e2c4 38bf 9040 eebd 3b53 78be 0333 943e
00000120: 23bb 6cbe 5ba7 2ebe fc51 0cbd d88f 953e
00000130: dcd1 74bd fe04 08bf 2c8f cb3e e1be 373d
00000140: ac5b e63d 07e7 61be c888 96be beb7 eb3c
00000150: 1c85 9fbe 2187 27be 2741 57be ec70 1ebe
00000160: ec53 03be bdc4 76bc 5850 b03e 6b03 17be
00000170: 8302 e1bd 537e a93e 9ee3 1d3e 8b68 213e
00000180: f51a d73d 3dbc 9f3e 2ce4 ce3e c6db 4ebe

weight f4 [100, 100]
-0.101110846 -0.08043888 -5.7592683 -0.7408492 -0.09475019 -0.012332226 -1.3119683 0.30771092
-0.19951168 0.031158917 0.10130537 -0.70962906 -0.058810167 0.073229514 -0.067701265 -0.63451177
-0.24855892 -6.850545 -0.34839082 -0.31265146 -1.614311 0.024649827 -2.130285 -0.022343302
-0.27153075 -0.0037790586 -0.09307407 -0.20932128 -0.06515545 -3.5643623 0.248267 -0.302557
0.2689014 0.32638523 -0.009610093 0.10627466 0.07792253 -5.096901 -0.14222553 -4.5865107
-1.7211026 0.57315105 -0.015165312 0.09689499 -2.375166 -0.2727445 -2.4396174 -0.04020799
-0.11947636 -1.1760837 -0.69772184 -0.25856677 -0.046972018 0.025767537 0.28278598 -0.6980008
-0.2599655 0.015669676 0.031383544 0.59517324 -0.0223881 0.45381558 0.41941825 0.58607304
-0.034801226 0.0073155016 -0.060331095 -0.8396145 0.16740954 0.110675305 0.31635275 -0.19122326
0.24475357 0.6858406 -0.07136829 0.3507407 -0.0018580745 -1.124486 -0.33842856 0.35082865
-0.041796036 -3.0715861 -1.7826266 0.031986535 0.041774154 -0.019385383 0.030366464 0.47908863
-0.03866984 -0.25542212 -5.665385 -0.04914901 -0.32571036 0.08547334 0.10025463 -0.5177968
-0.0055217925 0.79068834 -0.37527555 -0.07298313 -0.23186167 0.011035646 -0.06240419 0.58536977
-0.015489786 -0.8333 -0.03870807 0.30876845 -0.10279791 -0.010980293 0.031520255 -1.2565186
-1.4025536 -0.03828318 -0.45828453 -0.044268575 0.65475166 -1.0216572 -1.2740076 -4.575499
0.26586977 0.42144534 0.06324107 0.038122553 0.5699898 -0.017635357 -0.38953587 0.0032799614
0.30355024 0.017765876 -0.16890317 -0.040523455 0.35229278 0.018836759 -0.18000671 -0.046118364
0.23367323 -0.11213103 0.72212476 1.7113322 0.101512164 -0.28052935 -0.024417402 -0.06459263
-0.78923124 0.24690276 -2.1382546 -0.0047594607 -0.26642355 -0.54933566 1.011102 0.7286294
-0.5976471 2.2356935 0.2781995 0.7783653 -1.096838 -0.19507556 0.029929189 0.50808704
0.013817325 0.38763294 -0.19345404 0.90878254 0.21787333 0.023624405 0.47448894 -0.5428789
0.8422711 -0.43306062 -0.10076301 0.1340149 -0.4868635 -0.23293805 -0.20075023 -0.030525398
0.08998387 0.59686345 -2.42712 -0.13978978 -0.04919951 0.6941051 -0.55283695 0.760789
-0.14329275 -0.09172013 0.0537026 0.78158486 -0.049606774 -0.43782058 0.1762994 0.44546556
0.8100303 0.29309428 -0.09873033 0.69889367 -0.034845073 0.042803373 -1.5327436 0.042496227
-0.00728722 0.06028708 -0.12168458 0.09933777 -0.04355637 -0.014606722 0.007764296 0.15921907
-0.10329415 0.05339081 0.07211389 0.015779005 0.106682196 0.027152024 -0.14752123 0.14339904
-0.028258476 -0.12222488 -0.05302333 -0.048437826 -0.015176777 0.05328247 -0.22666515 -0.064201444
-0.061906308 -0.09660527 -0.0468067 -0.08495978 0.008889871 0.075507864 -0.0146627 -0.20325005
-0.08241386 0.1760426 0.03317585 -0.009091865 -0.11359664 -0.0017800228 -0.017516062 -0.20879862
-0.084901266 -0.021328287 -0.06997482 -0.04257686 -0.1448936 -0.037430204 -0.031357624 0.05864563
-0.07906783 0.06124416 0.006626171 -0.031015214 -0.1085508 0.09784189 0.17632586 0.01781573
00000000: 3413 cfbd 24bd a4bd ed4b b8c0 4ba8 3dbf
00000010: 630c c2bd 1b0d 4abc 94ee a7bf 498c 9d3e
00000020: ca4c 4cbe fc40 ff3c 3179 cf3d 40aa 35bf
00000030: eee2 70bd 5bf9 953d f6a6 8abd 5d6f 22bf
00000040: 3b86 7ebe aa37 dbc0 4860 b2be da13 a0be
00000050: bea1 cebf 6fee c93c 9756 08c0 4d09 b7bc
00000060: 1406 8bbe 15aa 77bb 9e9d bebd 5158 56be
00000070: 3870 85bd 831e 64c0 b439 7e3e c0e8 9abe
00000080: 72ad 893e f71b a73e a773 1dbc 87a6 d93d
00000090: d995 9f3d d019 a3c0 92a3 11be b2c4 92c0
000000a0: 174d dcbf 07ba 123f ee77 78bc e170 c63d
000000b0: b802 18c0 2ba5 8bbe b122 1cc0 22b1 24bd
000000c0: 06b0 f4bd e989 96bf e69d 32bf dd62 84be
000000d0: bb65 40bd 7116 d33c 53c9 903e 2eb0 32bf
000000e0: 331a 85be b15d 803c 088c 003d 465d 183f
000000f0: 4067 b7bc 845a e83e fdbd d63e e208 163f
00000100: bb8b 0ebd e0b6 ef3b bd1d 77bd faf0 56bf
00000110: 686d 2b3e bca9 e23d fdf8 a13e 08d0 43be
00000120: aea0 7a3e 4093 2f3f 8a29 92bd 4994 b33e
00000130: a28a f3ba 28ef 8fbf 8246 adbe d09f b33e
00000140: 5232 2bbd de94 44c0 1c2d e4bf 5004 033d
00000150: 601b 2b3d 18ce 9ebc 17c3 f83c 1b4b f53e
00000160: 4464 1ebd b0c6 82be d54a b5c0 7950 49bd
00000170: 82c3 a6be a50c af3d 4d52 cd3d 558e 04bf
00000180: 27f0 b4bb 8d6a 4a3f 1e24 c0be 2e78 95bd
00000190: 256d 6dbe dbce 343c 899b 7fbd cbda 153f
000001a0: dfc8 7dbc 2653 55bf 5a8c 1ebd e616 9e3e
000001b0: b687 d2bd b0e6 33bc 621b 013d 9ad5 a0bf
000001c0: e086 b3bf d3ce 1cbd 45a4 eabe f752 35bd
000001d0: ce9d 273f aac5 82bf ae12 a3bf 7d6a 92c0
000001e0: 1520 883e afc7 d73e 8984 813d 6526 1c3d
000001f0: daea 113f 0678 90bc 3f71 c7be 9ff4 563b
00000200: f06a 9b3e be89 913c f4f4 2cbe ecfb 25bd
00000210: b85f b43e 8c4f 9a3c ae53 38be 9ce6 3cbd
00000220: 0948 6f3e f4a4 e5bd 2bdd 383f ef0c db3f
00000230: 9ce5 cf3d 8ba1 8fbe 0107 c8bc 2449 84bd
00000240: 0f0b 4abf 14d4 7c3e 2ad9 08c0 40f5 9bbb
00000250: ab68 88be 43a1 0cbf ca6b 813f 7587 3a3f
00000260: 66ff 18bf 9a15 0f40 2a70 8e3e f342 473f
00000270: 3065 8cbf e3c1 47be 0f2e f53c fe11 023f
00000280: 1062 623c d377 c63e d118 46be f9a5 683f
00000290: 301a 5f3e f887 c13c 37f0 f23e 1dfa 0abf
000002a0: 149f 573f 1fba ddbe d65c cebd 343b 093e
000002b0: 2c46 f9be 5087 6ebe 7891 4dbe 6610 fabc
000002c0: 7749 b83d 0bcc 183f ef55 1bc0 0d25 0fbe
000002d0: 6d85 49bd dfb0 313f b986 0dbf 11c3 423f
000002e0: 56bb 12be c3d7 bbbd 42f7 5b3d f215 483f
000002f0: 7930 4bbd 052a e0be d487 343e 1014 e43e
00000300: 255e 4f3f 7410 963e 2133 cabd b2ea 323f
00000310: b5b9 0ebd 9752 2f3d f130 c4bf 8610 2e3d
00000320: a2c9 eebb 96ef 763d c435 f9bd 9a71 cb3d
00000330: 2a68 32bd 0851 6fbc a36b fe3b 530a 233e
00000340: e28b d3bd 52b0 5a3d 72b0 933d f942 813c
00000350: 327c da3d ec6d de3c ce0f 17be 33d7 123e
00000360: 527e e7bc 0a51 fabd fe2e 59bd be66 46bd
00000370: 04a8 78bc b83e 5a3d e91a 68be 0c7c 83bd
00000380: 7891 7dbd fcd8 c5bd 62b8 3fbd 65ff adbd
00000390: d2a6 113c dea3 9a3d d23b 70bc c820 50be
000003a0: 99c8 a8bd 8344 343e 66e3 073d 0cf6 14bc
000003b0: 5ba5 e8bd a74f e9ba d87d 8fbc 4ecf 55be
000003c0: b7e0 adbd a9b8 aebc f54e 8fbd 1365 2ebd
000003d0: fd5e 14be 6a50 19bd da70 00bd 6636 703d
000003e0: 51ee a1bd 28db 7a3d 5a20 d93b 9e13 febc
000003f0: e24f debd 5461 c83d c48e 343e 4bf2 913c

bias f4 [100]
0.005296916 -0.1672106 -0.17904991 -0.2682103 -0.094644375 -0.07130958 -0.7661395 0.04817722
0.20421204 -0.1434871 0.085763 -0.3581059 0.21527494 -0.08707642 -0.56804526 -0.17725137
-0.1004744 -0.6970768 -0.1376903 -0.16547821 0.13055307 0.037371352 -0.025317663 -0.43759516
-0.14680354 -0.04243439 -0.33165094 -0.23255754 -0.081746764 -0.18542704 0.056033406 -0.061307333
-0.19037041 -0.13988075 0.11435599 -0.40213734 -0.34589052 0.26115397 -1.115142 -0.08585763
0.006745724 -0.09096781 -0.5115218 -0.21444009 -0.04421242 -0.77243954 0.03541108 -0.33758745
-0.009836961 -1.1585429 -0.09659868 0.061762806 -0.0049447697 -0.09320165 -0.09332125 -0.44480026
-0.33447796 -0.21663767 -0.007541914 -1.319795 -0.5111653 0.089059204 -0.15249328 -0.015009517
-0.49230477 -0.36575827 -0.8671336 -0.5582174 -0.07678666 0.08880004 -0.02974006 -0.25071627
0.084025204 0.09934902 -1.0840971 0.0057934476 0.11053651 -0.6142358 -0.88141197 -0.37091842
0.10489262 0.19396919 -0.16025801 -0.10515104 0.16352636 0.12179518 -0.081006564 0.00922118
-0.49506953 -0.7363696 -0.18966188 -0.0244059 -0.066608265 0.024024658 -0.15812306 -0.33001673
-0.8046656 -0.03684198 -0.15553336 -0.081588805
00000000: c091 ad3b 4139 2bbe dc58 37be dc52 89be
00000010: e9d4 c1bd c20a 92bd b821 44bf 7a55 453d
00000020: f61c 513e 48ee 12be 83a4 af3d a859 b7be
00000030: 0971 5c3e 1f55 b2bd 6a6b 11bf 6281 35be
00000040: 86c5 cdbd a073 32bf b0fe 0cbe 1f73 29be
00000050: b4af 053e b412 193d fd66 cfbc 790c e0be
00000060: ab53 16be afcf 2dbd 27ce a9be 9023 6ebe
00000070: d96a a7bd 96e0 3dbe 4983 653d 661d 7bbd
00000080: 76f0 42be e63c 0fbe 7933 ea3d f2e4 cdbe
00000090: 9018 b1be f9b5 853e f9bc 8ebf 20d6 afbd
000000a0: 3c0b dd3b 554d babd 18f3 02bf 2f96 5bbe
000000b0: 1518 35bd 99be 45bf 350b 113d 43d8 acbe
000000c0: 342b 21bc 224b 94bf 87d5 c5bd fffa 7c3d
000000d0: bc07 a2bb 82e0 bebd 361f bfbd dcbc e3be
000000e0: b240 abbe 44d6 5dbe 2922 f7bb 0bef a8bf
000000f0: bbdb 02bf ac64 b63d 3327 1cbe 7aea 75bc
00000100: 5f0f fcbe ab44 bbbe 78fc 5dbf 56e7 0ebf
00000110: 5342 9dbd ccdc b53d 6da1 f3bc e25d 80be
00000120: 6815 ac3d 8077 cb3d b2c3 8abf f6d6 bd3b
00000130: f760 e23d 8f3e 1dbf 37a4 61bf 05e9 bdbe
00000140: f1d1 d63d dc9f 463e ad1a 24be 6e59 d7bd
00000150: 7473 273e c06f f93d c5e6 a5bd 6f14 173c
00000160: c179 fdbe b882 3cbf b936 42be e2ee c7bc
00000170: ea69 88bd 5ccf c43c 03eb 21be f4f7 a8be
00000180: 91fe 4dbf 9ee7 16bd 2344 1fbe 0818 a7bd

weight f4 [50, 100]
-0.45419577 -3.5027754 -0.03301101 -0.2930074 -0.083068185 -0.39166826 -1.3366934 -1.9770178
-0.32897106 -0.06557874 -0.6584225 -0.04368799 -0.6349534 0.7738147 -6.3478093 0.817628
-0.68628603 -0.19998373 -0.009059787 0.7246222 0.11088465 -1.2030739 -3.0456612 0.25367734
-0.07644769 -0.6490347 1.0877908 -3.051095 -2.1359365 -0.780586 -0.35000005 -0.9219412
-1.089657 1.54735 0.36940977 0.39426625 -1.682677 0.8713132 -3.058436 -0.009037037
-0.8441531 0.029492913 -0.22499911 0.29573163 -2.0708385 -3.1967201 -0.5924667 0.54593533
-1.8891134 -2.236835 -0.13956971 -1.1810218 0.2453422 0.013698463 -1.9248564 0.17940757
0.6477925 -0.82654256 0.45390636 -1.7113892 -0.102465734 0.22581592 -0.6533721 0.42912877
1.6344206 -0.1041457 -0.12732074 -0.11876682 0.007903808 0.12506945 -1.020442 0.16439444
-2.737376 -0.010650882 -0.526624 0.8386349 -0.048323862 -1.0347599 -0.7775188 0.8926884
0.50673676 0.15042911 -0.13519709 0.024934702 -1.4264069 -1.9885744 -0.08624447 -1.00016
-0.14042239 -1.700085 0.108334914 -1.8974451 -2.600572 0.90592325 0.22929762 -3.0172958
0.19058168 -3.2862046 -0.05725038 -0.39065656 -1.4160733 0.048252515 -0.020684235 0.21137737
-0.08085104 -0.43160075 -0.5181606 -0.27677557 -0.21426532 -0.0398275 0.38548428 0.5487181
-0.39708614 -2.359785 -1.8067727 -0.6309155 -0.113838084 -3.6240184 -0.032893468 -0.96275157
0.805071 -0.29741225 -0.25219202 -1.8832989 0.05134448 0.1432545 -0.5259111 1.3146398
1.1789674 -2.9152474 -1.3423747 -2.3271623 0.24375765 -0.2019269 -2.1335752 0.50277615
-2.1883063 -0.8706612 -2.2965498 -0.01636809 -1.0182045 -0.0453262 -1.3713018 -0.9600321
0.14931312 -0.8027015 -0.6696872 -1.7613494 -0.03311797 -0.45930085 -0.17829959 0.70340717
-0.30931258 0.01412844 -2.603488 -0.77996093 -1.7476292 0.2205246 0.6028548 -3.0971453
-0.3999302 0.30468243 0.56921333 0.27273026 -2.5784092 0.74259675 0.08895856 -0.12079792
-0.06209141 0.30830905 0.06863359 -1.252884 0.2247822 -1.5749593 -0.32782778 -5.813402
-1.2297713 -2.071341 -0.7191512 -0.09043261 1.0272769 0.5549052 -2.2148967 -0.008421588
1.3259182 2.9721763 -0.070749395 0.044775452 -0.74224037 -0.76514876 0.068182796 0.01383096
0.22005033 -0.6713273 -0.43787512 0.028427035 -1.4050773 -0.3665594 -0.09298702 0.13360879
-0.29462454 -1.1605182 0.022703521 0.008867082 0.07294572 -0.50344545 -1.8633198 -0.13132384
-2.1756356 -0.03596044 -1.9578768 0.48656672 -0.48665515 0.3403745 -0.59051484 0.078479715
-1.9998748 1.3257039 -0.040386584 -0.47158158 -1.6843486 -0.24243289 -1.6901686 -2.259995
-0.071370386 -0.018507147 0.8715879 -0.17326058 -0.9084779 -0.30270845 0.53960454 0.27908474
-0.57193184 -0.35417452 0.5210748 0.14635392 -2.970719 0.14032796 -3.8016188 -0.09494176
-3.8350928 -0.015849298 0.8639239 0.31274173 -2.0400124 -1.8643261 0.09910968 0.38802335
0.98260117 0.3598542 -0.12765624 -1.4634262 -2.4539268 -0.0030549276 2.5988917 0.36577797
00000000: 598c e8be 792d 60c0 8e36 07bd 1105 96be
00000010: a71f aabd be88 c8be c518 abbf eb0e fdbf
00000020: e56e a8be 254e 86bd 618e 28bf 2ef2 32bd
00000030: 4e8c 22bf b818 463f 4121 cbc0 1250 513f
00000040: 71b0 2fbf 89c8 4cbe 806f 14bc d780 393f
00000050: 7e17 e33d 53fe 99bf 1dec 42c0 ffe1 813e
00000060: 9b90 9cbd 2327 26bf bb3c 8b3f 2445 43c0
00000070: 2fb3 08c0 7cd4 47bf 3533 b3be 5704 6cbf
00000080: e179 8bbf 910f c63f 4723 bd3e 44dd c93e
00000090: f661 d7bf 620e 5f3f 6abd 43c0 1510 14bc
000000a0: 6b1a 58bf 1f9b f13c 2b66 66be 236a 973e
000000b0: 9e88 04c0 1097 4cc0 e6ab 17bf 6bc2 0b3f
000000c0: 78ce f1bf 4e28 0fc0 5deb 0ebe b92b 97bf
000000d0: fc3a 7b3e 856f 603c b261 f6bf 9eb6 373e
000000e0: bbd5 253f 4b98 53bf 6a66 e83e cd0e dbbf
000000f0: 8ed9 d1bd 4a3c 673e 6543 27bf c4b6 db3e
00000100: b234 d13f 574a d5bd 5e60 02be 053c f3bd
00000110: f97e 013c 3512 003e d89d 82bf 0457 283e
00000120: 2b31 2fc0 0981 2ebc d5d0 06bf c7b0 563f
00000130: 3eef 45bd 0373 84bf 790b 47bf 3a87 643f
00000140: 80b9 013f 170a 1a3e 1b71 0abe dc43 cc3c
00000150: 8094 b6bf 9b89 febf f1a0 b0bd 3e05 80bf
00000160: e3ca 0fbe 639c d9bf b2de dd3d 7bdf f2bf
00000170: c66f 26c0 96ea 673f ffcc 6a3e 601b 41c0
00000180: d827 433e 2d51 52c0 607f 6abd 2304 c8be
00000190: e441 b5bf 6ea4 453d fc71 a9bc 4f73 583e
000001a0: 3b95 a5bd c6fa dcbe 2ca6 04bf 87b5 8dbe
000001b0: 5e68 5bbe 2922 23bd 325e c53e ca78 0c3f
000001c0: e04e cbbe b806 17c0 5444 e7bf ae83 21bf
000001d0: f123 e9bd ebef 67c0 4dbb 06bd e376 76bf
000001e0: 2219 4e3f 6b46 98be 501f 81be f00f f1bf
000001f0: 974e 523d 4fb1 123e 1ca2 06bf 1e46 a83f
00000200: 67e8 963f 6a93 3ac0 efd2 abbf 3af0 14c0
00000210: 9b9b 793e edc5 4ebe 7f8c 08c0 f0b5 003f
00000220: 360d 0cc0 a7e3 5ebf acfa 12c0 5f16 86bc
00000230: 8654 82bf f7a7 39bd d186 afbf aac4 75bf
00000240: 8ae5 183e d87d 4dbf 9f70 2bbf e673 e1bf
00000250: b5a6 07bd 7b29 ebbe 2b94 36be 7e12 343f
00000260: 385e 9ebe f97a 673c 8c9f 26c0 85ab 47bf
00000270: 50b2 dfbf 33d1 613e b154 1a3f a137 46c0
00000280: a7c3 ccbe 56ff 9b3e f7b7 113f 4da3 8b3e
00000290: a804 25c0 d21a 3e3f e82f b63d e664 f7bd
000002a0: 9053 7ebd afda 9d3e c58f 8c3d 815e a0bf
000002b0: 4e2d 663e 4498 c9bf 0bd9 a7be 6407 bac0
000002c0: 2569 9dbf da90 04c0 4b1a 38bf bb34 b9bd
000002d0: cf7d 833f 440e 0e3f dec0 0dc0 b3fa 09bc
000002e0: b0b7 a93f 2338 3e40 0fe5 90bd 7766 373d
000002f0: 7703 3ebf cae0 43bf 6ca3 8b3d 409b 623c
00000300: e054 613e 1bdc 2bbf 2b31 e0be d0df e83c
00000310: 93d9 b3bf acad bbbe fb6f bebd bed0 083e
00000320: 07d9 96be dc8b 94bf bcfc b93c 3d47 113c
00000330: 9164 953d cde1 00bf 4381 eebf c279 06be
00000340: 9d3d 0bc0 414b 13bd b59b fabf 461f f93e
00000350: dd2a f9be 9145 ae3e fb2b 17bf f9b9 a03d
00000360: e6fb ffbf aab0 a93f 676c 25bd 2473 f1be
00000370: bc98 d7bf 5440 78be 7257 d8bf c2a3 10c0
00000380: a32a 92bd 4d9c 97bc 6220 5f3f 396b 31be
00000390: 0292 68bf 9afc 9abe 8623 0a3f 32e4 8e3e
000003a0: 206a 12bf 5d56 b5be 2865 053f cddd 153e
000003b0: 4320 3ec0 22b2 0f3e b94d 73c0 d370 c2bd
000003c0: 2972 75c0 63d6 81bc 1e2a 5d3f af1f a03e
000003d0: 908f 02c0 3da2 eebf 04fa ca3d ffaa c63e
000003e0: c08b 7b3f cf3e b83e 51b8 02be 8d51 bbbf
000003f0: 230d 1dc0 2e35 48bb 3e54 2640 4047 bb3e

bias f4 [50]
0.05427241 0.15312685 -0.18634999 -0.08126499 -0.03430719 -0.70077574 -0.038011577 -0.12969053
-0.16031486 -0.91056997 -0.20468798 -0.24703933 -0.1529933 0.11929782 -0.26115778 0.14032218
-0.56471354 -0.08421418 0.0711741 0.15226531 -1.3117476 -0.09185642 -0.016613828 0.08625674
0.16708994 -0.038444497 -0.79119265 0.09661751 -0.43653077 -0.31959 0.116350785 -0.27596697
-0.08459247 0.1338707 -0.48060635 0.1674813 0.04994181 -0.6439486 -0.40742797 0.2342879
-0.7654418 -0.10882059 0.01946708 0.12292626 -0.27277973 -0.00874146 -1.2803643 -0.2792139
0.22219002 -0.1793346
00000000: bf4c 5e3d 49cd 1c3e 88d2 3ebe 426e a6bd
00000010: b285 0cbd 0a66 33bf 07b2 1bbd 98cd 04be
00000020: 9429 24be 1d1b 69bf ba99 51be e1f7 7cbe
00000030: 47aa 1cbe 6a52 f43d 79b6 85be 9eb0 0f3e
00000040: 1191 10bf 7c78 acbd bac3 913d 70eb 1b3e
00000050: 58e7 a7bf 381f bcbd b919 88bc 60a7 b03d
00000060: a019 2b3e fa77 1dbd 9a8b 4abf 67df c53d
00000070: f680 dfbe 4da1 a3be 5249 ee3d 8b4b 8dbe
00000080: d13e adbd 6715 093e 0912 f6be 3880 2b3e
00000090: c98f 4c3d d1d9 24bf 669a d0be 2be9 6f3e
000000a0: fef3 43bf 54dd debd 6d79 9f3c c3c0 fb3d
000000b0: c9a9 8bbe 5738 0fbc fae2 a3bf 20f5 8ebe
000000c0: c885 633e 7da3 37be

weight f4 [50, 50]
-0.30801612 -0.36944762 -0.63968587 -1.1909415 -0.15744591 0.25273064 -0.21303792 -0.15555298
0.004716007 -0.9279872 -0.0538153 0.05092743 0.5786726 0.47855544 -0.01506734 -1.4380723
0.2844595 -0.18769975 0.3912909 0.49015754 0.46433824 0.162593 0.34742686 0.35276234
-0.971833 -0.0037564524 -0.7619749 -0.545534 0.25107923 -0.07352694 -0.10678369 -0.32896656
0.3264957 -0.5441031 1.108702 -0.73615295 -1.468914 -0.2257261 -0.5949612 -0.49570158
1.1373582 0.24762206 -0.28524756 0.92358214 0.21122515 0.020734012 0.072311305 -0.818606
0.09719437 0.3585501 -0.46220547 -0.007948462 -0.35431972 -0.69639856 -4.0358047 0.099298745
-0.18696095 -0.12975048 -0.020124728 -0.43737864 -1.7199025 -0.48690516 -0.18914218 -0.04756506
-0.39378145 -1.1157242 -1.2174455 0.463314 0.2891533 -0.06634711 0.47172806 -0.5636442
0.5205084 0.12497354 -0.4171854 0.36401966 -1.0410123 -0.2576683 -0.22401541 0.25308222
-0.08100338 -0.7027773 0.3372654 -2.4596043 0.85199183 -1.3443172 -0.78302586 0.50843245
-1.1160382 -1.0786657 -0.33270964 0.69029325 -2.2840543 -0.21786126 0.395686 0.4535113
0.5257563 -0.6472953 0.23762515 0.08684412 0.04334381 0.24410948 -0.36304712 -0.41692376
-0.14153951 1.1675974 0.23038082 0.34968984 0.037674803 0.20421425 -0.33121273 -0.032229844
-0.6724666 -0.026756966 -0.726964 -0.21950348 -0.27085948 0.05641076 -0.5747378 0.72111964
-0.98734426 -0.23755261 -0.44134882 0.108074136 -0.115238644 -0.34077623 -0.21616018 0.5662652
0.46841913 0.13693105 -0.096591786 -0.9099796 0.13309796 -0.3044392 -0.9613574 -0.2804632
0.5766235 0.3448122 0.26223248 -0.16588897 0.41454816 0.0771767 -0.64818335 0.1657018
-0.5296945 0.0060165655 0.51876676 0.99874204 -0.39184046 0.22519432 -0.36393517 -0.46438375
-0.44425824 -2.5238795 -0.7354373 -0.027638566 0.012538688 -0.5022562 -0.10139105 -0.54563767
-0.6887206 0.51963204 0.1066971 0.51399314 0.14738351 -1.0416468 0.3542037 0.48206845
0.66599363 0.74157363 -0.12080009 -0.08465884 -0.40860623 0.091330916 -4.296834 -0.16933261
-0.7512151 -0.14407972 0.12824126 0.39642116 -0.28183278 -0.37785462 1.2327175 0.26516598
1.4205526 -1.5502529 -0.5944515 -1.1009729 -0.4289241 -2.3048046 0.22372583 -0.11411077
-0.8667754 0.35281187 -0.7033368 0.21991625 0.6169649 -0.6124274 -0.6263397 -0.18659726
-0.49232355 0.07296886 -0.8374532 -0.8497936 -0.19583113 0.029555546 -0.112764455 0.063216396
-0.08354736 -0.20850085 -0.83375156 -0.017279362 -0.59465843 0.123298876 -0.6403323 -0.45287627
0.5594192 -0.43949398 0.090670526 0.02345503 -0.101659425 -0.16321847 0.2239871 0.3533475
-0.22024225 0.37226814 -0.08442308 -0.18741275 0.22353235 0.5408579 0.15222178 -0.2515876
0.50751215 -2.2848258 0.108515106 -0.47992358 -1.5251342 -0.017460344 -1.3712457 -0.32413742
-1.334153 -0.015082188 -0.11595536 -0.35811937 0.14046367 0.6649992 -0.50855625 -0.50081503
-0.0204752 0.47403017 -5.7297807 0.04161371 -2.3904502 -1.2940451 -0.28882477 -1.139729
00000000: 4ab4 9dbe 3d28 bdbe 74c2 23bf c570 98bf
00000010: 8039 21be e965 813e 9d26 5abe 4849 1fbe
00000020: bc88 9a3b 9290 6dbf 6f6d 5cbd 4899 503d
00000030: e323 143f 3805 f53e 01dd 76bc c112 b8bf
00000040: ada4 913e 5d34 40be 4857 c83e eef5 fa3e
00000050: bebd ed3e c87e 263e efe1 b13e 449d b43e
00000060: 0cca 78bf d02e 76bb c910 43bf 1ea8 0bbf
00000070: 758d 803e 4b95 96bd 68b1 dabd 4e6e a8be
00000080: 722a a73e 574a 0bbf f2e9 8d3f 8574 3cbf
00000090: 6005 bcbf be24 67be 614f 18bf 99cc fdbe
000000a0: f494 913f a390 7d3e f80b 92be e16f 6c3f
000000b0: 684b 583e 60da a93c f317 943d 2a90 51bf
000000c0: d80d c73d e193 b73e 32a6 ecbe 443a 02bc
000000d0: 6569 b5be 2d47 32bf 5025 81c0 245d cb3d
000000e0: b172 3fbe 4fdd 04be 9ddc a4bc 18f0 dfbe
000000f0: c425 dcbf a24b f9be 7dae 41be 95d3 42bd
00000100: b99d c9be 0dd0 8ebf 41d5 9bbf 7e37 ed3e
00000110: e70b 943e fee0 87bd 5786 f13e fc4a 10bf
00000120: 0a40 053f 21f2 ff3d 5399 d5be c960 ba3e
00000130: e43f 85bf 19ed 83be 4c64 65be fe93 813e
00000140: 1ae5 a5bd 37e9 33bf 0dae ac3e 286a 1dc0
00000150: 231c 5a3f 9612 acbf 6274 48bf a128 023f
00000160: 57da 8ebf b811 8abf eb58 aabe 0fb7 303f
00000170: f22d 12c0 0617 5fbe 5b97 ca3e a232 e83e
00000180: f797 063f 25b5 25bf 0254 733e 54db b13d
00000190: 4789 313d d6f7 793e 50e1 b9be 0877 d5be
000001a0: bcef 10be d573 953f f3e8 6b3e 8c0a b33e
000001b0: e550 1a3d 8a1d 513e b794 a9be 7103 04bd
000001c0: c526 2cbf 6d31 dbbc 501a 3abf 85c5 60be
000001d0: 18ae 8abe f80e 673d 0422 13bf 4c9b 383f
000001e0: 98c2 7cbf fe40 73be 79f8 e1be f955 dd3d
000001f0: 3d02 ecbd 397a aebe 1859 5dbe c2f6 103f
00000200: a2d4 ef3e a737 0c3e ead1 c5bd 6cf4 68bf
00000210: d54a 083e 74df 9bbe 851b 76bf df98 8fbe
00000220: 999d 133f 3a8b b03e 5643 863e ccde 29be
00000230: a83f d43e d10e 9e3d 58ef 25bf bcad 293e
00000240: 0f9a 07bf 9c26 c53b e6cd 043f 8fad 7f3f
00000250: 509f c8be 5799 663e b655 babe b5c3 edbe
00000260: d175 e3be 3e87 21c0 9e45 3cbf 466a e2bc
00000270: 126f 4d3c dd93 00bf 1ca6 cfbd e9ae 0bbf
00000280: fe4f 30bf 9b06 053f 0284 da3d 0e95 033f
00000290: b4eb 163e af54 85bf 305a b53e add1 f63e
000002a0: 8f7e 2a3f c5d7 3d3f 0a66 f7bd 9d61 adbd
000002b0: d634 d1be b40b bb3d aa7f 89c0 8765 2dbe
000002c0: a24f 40bf a289 13be ad51 033e b7f7 ca3e
000002d0: 634c 90be 2976 c1be b0c9 9d3f d6c3 873e
000002e0: abd4 b53f b06e c6bf f92d 18bf aeec 8cbf
000002f0: f19b dbbe eb81 13c0 6218 653e e8b2 e9bd
00000300: fee4 5dbf c2a3 b43e e10d 34bf ba31 613e
00000310: 69f1 1d3f 0bc8 1cbf cc57 20bf 5a13 3fbe
00000320: d511 fcbe b370 953d 5563 56bf 138c 59bf
00000330: f587 48be 791e f23c 0df1 e6bd 9977 813d
00000340: e11a abbd 3f81 55be be70 55bf 738d 8dbc
00000350: 893b 18bf 1f84 fc3d d1ec 23bf 66df e7be
00000360: 1936 0f3f 5b05 e1be 78b1 b93d c324 c03c
00000370: d132 d0bd be22 27be e05c 653e f7e9 b43e
00000380: 2f87 61be ee99 be3e 02e6 acbd 21e9 3fbe
00000390: aae5 643e aa75 0a3f 07e0 1b3e 17d0 80be
000003a0: 51ec 013f 963a 12c0 2b3d de3d 8bb8 f5be
000003b0: 9937 c3bf ff08 8fbc fb84 afbf 57f5 a5be
000003c0: 87c5 aabf 481b 77bc 017a edbd 6c5b b7be
000003d0: b5d5 0f3e 633d 2a3f be30 02bf 6a35 00bf
000003e0: 9bbb a7bc 15b4 f23e 5d5a b7c0 2373 2a3d
000003f0: 23fd 18c0 45a3 a5bf d7e0 93be a4e2 91bf

bias f4 [50]
0.40031585 0.3087614 -0.79706264 0.2710504 0.5228551 -1.1767372 0.5277315 0.44174373
0.5090626 0.21755685 0.21230012 0.46542335 0.31184635 0.23651765 0.47974855 0.23157792
0.5724807 -0.8478708 0.63605905 0.3869186 0.024609068 -1.6558348 0.13667443 0.42742246
0.5527722 0.2916876 0.23730496 0.33127734 0.27429414 0.6959317 0.5544457 0.40059885
0.47312683 0.49004537 -1.4629738 0.19831426 -0.7110681 0.4193652 0.5084025 0.0051958854
0.47956812 0.5532681 0.3462319 0.32242164 -1.7517098 0.37634343 -1.7490149 0.30542284
0.23227045 0.6702722
00000000: 33f6 cc3e f915 9e3e 4c0c 4cbf 1ec7 8a3e
00000010: d5d9 053f 539f 96bf 6919 073f 3c2c e23e
00000020: ed51 023f 39c7 5e3e 3465 593e f84b ee3e
00000030: 53aa 9f3e af31 723e 9aa1 f53e c322 6d3e
00000040: 188e 123f 100e 59bf c4d4 223f 321a c63e
00000050: f598 c93c 65f2 d3bf 62f4 0b3e 1ed7 da3e
00000060: 7b82 0d3f 1458 953e 1200 733e 2f9d a93e
00000070: 4870 8c3e 9428 323f 27f0 0d3f 4b1b cd3e
00000080: ae3d f23e 3ae7 fa3e ba42 bbbf e512 4b3e
00000090: 8f08 36bf 09b7 d63e ab26 023f 3f42 aa3b
000000a0: f489 f53e faa2 0d3f 4f45 b13e 7314 a53e
000000b0: 0738 e0bf 16b0 c03e b8df dfbf 6260 9c3e
000000c0: 4ed8 6d3e f596 2b3f

weight f4 [2, 50]
0.10248464 0.05796736 0.28450376 0.030775538 0.09059321 -0.53973454 0.10650483 -0.09430135
-0.22999875 -0.25147635 -0.85801816 0.08357456 0.12381378 0.16903958 -0.08001424 0.063089944
-0.14047775 -0.16633822 -0.07005708 0.16862021 0.328996 -0.43723363 0.121144965 0.073003076
-0.19867426 -0.103037044 -0.055005785 0.12208892 0.12471992 -0.08184823 -0.18457204 0.021894332
0.06956053 -0.14503086 -0.37555552 0.14874376 0.06829123 0.12790464 0.21197312 0.28204778
-0.16166955 0.14695498 -0.091605395 0.072139315 0.4567496 0.0966064 -0.35889387 -0.34746373
-0.020495433 -0.26938027 -0.041001208 -0.18995678 -0.38215286 -0.14331287 -0.0926233 0.5192837
-0.011513755 0.11604614 0.15878727 0.060780637 0.81493795 -0.094582826 -0.012004677 0.021825021
0.120810434 -0.045122683 0.11842877 0.19437054 0.24936132 0.055929396 -0.33237714 0.49862906
-0.2776423 -0.050608557 0.22554608 0.06774052 0.1545109 0.014356801 -0.047112018 0.17240767
0.20106222 -0.13034292 -0.05451224 0.06360249 0.37991 -0.1601753 -0.2838424 -0.17122509
0.015603236 -0.20386738 0.19421135 0.012296932 0.14369819 -0.12605315 -0.32546866 -0.036154058
0.2403245 0.35744518 -0.22883567 0.16701521
00000000: 78e3 d13d 2f6f 6d3d 7aaa 913e fb1c fc3c
00000010: ef88 b93d 0b2c 0abf 341f da3d 1121 c1bd
00000020: cb84 6bbe 82c1 80be 14a7 5bbf 2429 ab3d
00000030: 1492 fd3d b618 2d3e 82de a3bd 4d35 813d
00000040: 66d9 0fbe 9154 2abe 167a 8fbd c7aa 2c3e
00000050: 2a72 a83e 16dd dfbe da1a f83d a382 953d
00000060: 4471 4bbe 1605 d3bd bf4d 61bd c109 fa3d
00000070: 286d ff3d 0ba0 a7bd 7400 3dbe be5b b33c
00000080: c075 8e3d f882 14be d048 c0be 4950 183e
00000090: 46dc 8b3d 6ff9 023e 7b0f 593e 9168 903e
000000a0: b48c 25be 5e7b 163e 9c9b bbbd c7bd 933d
000000b0: 15db e93e 94d9 c53d f0c0 b7be c4e6 b1be
000000c0: 0ae6 a7bc 36ec 89be e2f0 27bd 0884 42be
000000d0: 8aa9 c3be 9cc0 12be 49b1 bdbd c7ef 043f
000000e0: 30a4 3cbc 99a9 ed3d 2199 223e 1ef5 783d
000000f0: c69f 503f a4b4 c1bd 44af 44bc 63ca b23c
00000100: 766b f73d 90d2 38bd c88a f23d 1209 473e
00000110: 9358 7f3e 3916 653d 562d aabe 4f4c ff3e
00000120: 2227 8ebe eb4a 4fbd 8df5 663e 8bbb 8a3d
00000130: 1b38 1e3e ca38 6b3c 88f8 40bd a38b 303e
00000140: 41e3 4d3e 9d78 05be 3a48 5fbd 0642 823d
00000150: 9083 c23e fe04 24be cb53 91be a155 2fbe
00000160: b7a4 7f3c 9cc2 50be 57df 463e 1279 493c
00000170: 9e25 133e 1414 01be d4a3 a6be 4716 14bd
00000180: a017 763e 0e03 b73e e653 6abe 0906 2b3e

bias f4 [2]
0.3350954 -0.39443243
00000000: a091 ab3e 0cf3 c9be
